data.pth (torch, 7999 bytes, 6 tensors)

l1.weight f4 [8, 105]
0.27722827 -0.5786882 0.6779075 0.44018602 -0.337251 0.8603864 0.21503544 0.76399523
-0.0276056 0.4790728 0.4589262 -0.7499845 0.42285812 0.32116884 -1.3274437 0.2615745
0.24610534 0.4129854 0.7356274 0.10306616 -0.8083159 0.6482678 -0.20229767 0.04185576
0.46234408 0.27782857 0.5074418 -0.8210449 0.30523804 0.16864324 0.47221193 1.0899363
-0.82456356 0.7499583 0.24537298 -1.103102 0.82856214 0.7913025 -0.3836575 -0.20226584
-0.3315168 -0.28949317 0.3416938 0.46279904 -0.045343015 0.61177254 0.90130997 0.30080068
0.43441597 0.68545586 0.43671164 -0.058999304 -0.99017715 0.60295933 -0.6745163 0.17894137
-0.84044176 0.41988733 0.42978474 0.3443741 0.5343089 -0.6777254 0.120181404 0.46071687
0.26132977 1.0961145 0.36954904 -0.57303506 1.0082848 -0.8067608 -1.5048926 -0.76315206
0.671968 0.41275483 0.75214356 -0.80673826 0.4608936 -0.36753166 0.11606625 -0.82102793
-0.4151175 0.014245497 0.16544601 0.29614824 0.22129647 0.4743692 0.2646782 0.46914327
0.7998999 1.2127395 0.8053937 0.4817809 -0.81137013 -0.43936023 0.25377023 0.5844738
0.46824175 0.48240563 0.09497938 0.27717927 0.6281972 0.028102076 -0.5586436 0.58831924
-0.2632869 0.17603809 0.38632578 0.70988727 -0.4176643 -0.09403076 -0.50447917 -0.3599878
1.5145463 0.18237965 0.41934982 0.57211155 0.49117064 -0.28816047 0.13065451 0.19184856
1.1134865 -0.4718628 0.28788623 0.45508012 0.040396217 0.8345318 0.68842 0.4682927
0.6059467 0.31566158 0.43729794 0.5478289 0.38772678 -0.5379714 0.3948834 -0.49974334
0.7003693 0.23124482 0.47990644 -0.39398405 0.0952268 -0.58969706 0.5344435 0.78968817
0.021815648 0.77820456 0.7223971 -0.06314874 0.3203789 0.92282706 -0.009485801 -0.8197194
-0.2904929 0.05551624 -0.072003506 -0.13042335 0.3512554 0.5592291 -0.16011535 0.057207495
-0.070566095 1.2748747 -0.10926022 -0.8206514 1.4064567 -1.2662305 0.15924014 0.0921387
-0.4142854 -0.032699212 -0.31054348 0.61559 -0.08926098 0.7317179 0.46032172 0.5047976
0.017744841 -0.48706543 0.35110745 0.558915 0.1981684 -0.4727402 0.37331674 0.0573793
0.3578963 -0.8143661 -0.19521895 0.5863901 0.01926551 -0.20148914 0.58239114 0.7056864
-0.183818 0.75063735 1.2520301 -0.64559186 -0.4661521 0.21065617 0.30279264 -0.23022532
0.33664942 -0.74843985 0.04976312 1.0853995 -1.4757619 0.4922321 -0.0939911 0.5725532
0.60125285 1.5076351 0.2565191 -0.45662165 -0.26656136 -1.3394427 -0.7799062 -0.31229895
-0.050994106 0.10780299 0.3523841 -0.17010073 0.71413696 0.7842782 -0.8604956 -0.19538696
-0.59565187 -0.42581475 -0.009176404 0.5714682 -0.5309291 0.022820026 -0.15141441 0.39389047
0.5837955 0.73205006 -0.24196051 0.08892685 0.69745225 1.2586694 -0.31852493 0.3289616
-0.41847828 -0.85269076 0.3616302 -0.3217261 -0.041340534 -0.60462296 -0.521478 0.23752734
-0.25550145 0.3557393 -0.22701742 -0.20306893 0.82572293 1.1911986 -0.26355577 0.32158056
00000000: ddf0 8d3e e924 14bf 598b 2d3f 1060 e13e
00000010: 2aac acbe 4842 5c3f 4032 5c3e 3195 433f
00000020: 2425 e2bc 0849 f53e 60f8 ea3e fcfe 3fbf
00000030: dc80 d83e 3e70 a43e ade9 a9bf 18ed 853e
00000040: 0a03 7c3e d372 d33e 1452 3c3f 5a14 d33d
00000050: caed 4ebf e1f4 253f 1f27 4fbe f270 2b3d
00000060: 5db8 ec3e 8c3f 8e3e b5e7 013f 0030 52bf
00000070: 2948 9c3e d0b0 2c3e c3c5 f13e 0883 8b3f
00000080: 9916 53bf 44fd 3f3f 0e43 7b3e 7232 8dbf
00000090: a61c 543f cd92 4a3f c16e c4be c71e 4fbe
000000a0: 92bc a9be 7338 94be 7df2 ae3e fff3 ec3e
000000b0: 99b9 39bd 209d 1c3f 40bc 663f 8c02 9a3e
000000c0: c56b de3e 097a 2f3f ab98 df3e 41a9 71bd
000000d0: 407c 7dbf 8b5b 1a3f 1aad 2cbf 683c 373e
000000e0: 3127 57bf 79fb d63e bf0c dc3e cd51 b03e
000000f0: 78c8 083f 697f 2dbf ab21 f63d 15e3 eb3e
00000100: 04cd 853e 7b4d 8c3f 8835 bd3e 6db2 12bf
00000110: 7a0f 813f e087 4ebf 52a0 c0bf ef5d 43bf
00000120: 1806 2c3f 9a54 d33e 7b8c 403f 6686 4ebf
00000130: 3ffa eb3e 1c2d bcbe 24b4 ed3d e32e 52bf
00000140: 488a d4be f265 693c ae6a 293e bea0 973e
00000150: 8b9b 623e 85e0 f23e e783 873e 8c33 f03e
00000160: 3dc6 4c3f 0c3b 9b3f 482e 4e3f fcab f63e
00000170: f4b5 4fbf d3f3 e0be 2cee 813e 13a0 153f
00000180: 62bd ef3e dffd f63e 8d84 c23d 71ea 8d3e
00000190: 88d1 203f 5336 e63c 4403 0fbf 179c 163f
000001a0: 8acd 86be 5443 343e 7ecc c53e 2cbb 353f
000001b0: 18d8 d5be 3393 c0bd 8c25 01bf 5250 b8be
000001c0: a7dc c13f bbc1 3a3e 05b5 d63e e775 123f
000001d0: b87a fb3e c589 93be 4cca 053e f373 443e
000001e0: ba86 8e3f 0098 f1be d365 933e 4300 e93e
000001f0: 8176 253d e0a3 553f 4b3c 303f 10c4 ef3e
00000200: 531f 1b3f 659e a13e 84e5 df3e 843e 0c3f
00000210: 2084 c63e 7eb8 09bf 282e ca3e 5cde ffbe
00000220: 674b 333f 71cb 6c3e 4cb6 f53e 47b8 c9be
00000230: 4506 c33d 63f6 16bf 4ad1 083f 0129 4a3f
00000240: bbb6 b23c 6a38 473f 04ef 383f 2054 81bd
00000250: b408 a43e 653e 6c3f 556a 1bbc 21d9 51bf
00000260: 7cbb 94be ff64 633d 9376 93bd b38d 05be
00000270: bfd7 b33e a329 0f3f 47f5 23be 6852 6a3d
00000280: f584 90bd 182f a33f d2c3 dfbd 3616 52bf
00000290: c606 b43f d713 a2bf d90f 233e 37b3 bc3d
000002a0: 371d d4be 9cef 05bd 8eff 9ebe 4e97 1d3f
000002b0: 76ce b6bd dd51 3b3f 4aaf eb3e 6a3a 013f
000002c0: a15d 913c a460 f9be 5bc4 b33e 0e15 0f3f
000002d0: a8ec 4a3e 010b f2be 5f23 bf3e 8f06 6b3d
000002e0: 2f3e b73e 4c7a 50bf 7ae7 47be a91d 163f
000002f0: b4d2 9d3c 2b53 4ebe 9617 153f dda7 343f
00000300: c93a 3cbe c529 403f 8642 a03f 8245 25bf
00000310: 7dab eebe 40b6 573e a307 9b3e 30c0 6bbe
00000320: 505d ac3e c199 3fbf 6ad4 4b3d 5fee 8a3f
00000330: c4e5 bcbf d905 fc3e 687e c0bd d992 123f
00000340: b5eb 193f 30fa c03f 7956 833e 50ca e9be
00000350: bb7a 88be dc72 abbf efa7 47bf a6e5 9fbe
00000360: 32df 50bd d0c7 dc3d b06b b43e e32e 2ebe
00000370: aed1 363f 75c6 483f 7149 5cbf 8513 48be
00000380: a47c 18bf 6404 dabe a158 16bc bd4b 123f
00000390: f8ea 07bf 10f1 ba3c 610c 1bbe 03ac c93e
000003a0: 9f73 153f a267 3b3f 7fc4 77be 481f b63d
000003b0: 3b8c 323f 141c a13f b315 a3be a86d a83e
000003c0: c942 d6be f149 5abf 9827 b93e 49b9 a4be
000003d0: b154 29bd 92c8 1abf 957f 05bf 5e3a 733e
000003e0: 16d1 82be 7623 b63e 4177 68be 4df1 4fbe
000003f0: 9462 533f 3279 983f c8f0 86be 35a6 a43e

l1.bias f4 [8]
0.8069392 1.5062332 0.8527269 0.908479 1.3282807 1.7260464 0.87974805 0.67642534
00000000: 9193 4e3f 40cc c03f 4f4c 5a3f 1492 683f
00000010: 1a05 aa3f 17ef dc3f 2b37 613f 362a 2d3f

l2.weight f4 [8, 8]
1.2251455 -0.100342646 2.4404416 1.4483845 -1.3240063 0.6729517 -0.54449207 1.9830722
-0.51330644 -0.07102042 1.4994317 1.8073751 -0.28405747 2.5091457 -0.81334424 0.74851084
-0.27512833 0.2342529 0.20633413 -0.2011838 -0.14132075 -0.26647344 0.118600056 -0.030440774
0.6145448 0.53795606 1.3655143 1.6099895 1.6613268 -1.0648332 2.5878685 1.8707937
0.12522034 1.3983039 -0.6455468 1.1462061 -1.9758501 1.6823871 1.7031938 -0.7691927
-1.8179351 2.1345482 1.4408959 1.115506 0.47507173 1.4022049 -2.4192748 -1.8274351
1.3058603 2.3741443 0.22918738 -0.93422925 -0.3505234 -0.7711987 1.539404 0.9931431
2.466688 0.6851379 -2.3972044 -1.5077078 2.211607 1.6395439 0.52551067 -0.49844813
00000000: 91d1 9c3f 7280 cdbd 3230 1c40 aa64 b93f
00000010: 0a79 a9bf 9046 2c3f d563 0bbf 4fd5 fd3f
00000020: 0d68 03bf 2773 91bd 61ed bf3f 1158 e73f
00000030: fb6f 91be d895 2040 5437 50bf 689e 3f3f
00000040: 9fdd 8cbe fedf 6f3e 4149 533e 2003 4ebe
00000050: 63b6 10be 356f 88be 96e4 f23d ee5e f9bc
00000060: cf52 1d3f 7db7 093f 2cc9 ae3f 2314 ce3f
00000070: 5ba6 d43f 744c 88bf a39f 2540 2b76 ef3f
00000080: c339 003e 9ffb b23f 8e42 25bf e2b6 923f
00000090: a8e8 fcbf 7658 d73f 4102 da3f d0e9 44bf
000000a0: 19b2 e8bf 709c 0840 476f b83f e7c8 8e3f
000000b0: 9a3c f33e 737b b33f 66d5 1ac0 65e9 e9bf
000000c0: 6e26 a73f fbf1 1740 19b0 6a3e a629 6fbf
000000d0: ce77 b3be 476d 45bf 310b c53f a03e 7e3f
000000e0: 37de 1d40 3365 2f3f cc6b 19c0 92fc c0bf
000000f0: f88a 0d40 93dc d13f de87 063f 9834 ffbe

l2.bias f4 [8]
-0.39414677 1.0671238 -0.3656876 -0.15406616 -0.21098648 0.74915695 -0.16494061 1.2564548
00000000: 9bcd c9be 8397 883f 683b bbbe 85c3 1dbe
00000010: d70c 58be c0c8 3f3f 31e6 28be 83d3 a03f

l3.weight f4 [21, 8]
-2.8430352 -2.5073836 -0.082717 0.107145056 -1.4099209 -2.3076065 0.75475866 0.6542279
-2.240143 0.86231333 -0.06544397 -0.8634787 -2.0023813 1.4916705 -4.045723 -0.044430286
0.2648113 -0.020396693 -0.028891372 0.13114576 -0.45906475 -2.3553271 0.44988313 -1.1874979
-2.260457 -2.169681 0.14931251 0.6791959 -2.5401425 -3.1370616 -1.9652443 1.2247342
-0.9816815 -0.39436564 -0.37804773 -2.2617593 0.28678674 -0.26805443 0.13343814 0.46462116
-0.6360112 0.44349584 -0.11134141 -0.008006375 0.44594678 -0.018839275 -2.366956 -0.369613
-2.653544 -0.7301867 0.1870861 0.11459594 -1.1198361 0.6022763 0.3584351 -0.046706226
-1.6809486 0.37565634 -0.27603704 -0.90739477 -2.4048574 -0.15536939 -1.9990455 1.0167016
-0.11541615 -0.24206245 0.059893906 -0.5615938 0.09351126 0.14778331 0.39832196 -1.1187685
-0.049985148 0.49254873 0.29598612 -2.4226174 0.20937316 -2.5192592 -2.4716423 0.82816094
0.05206149 -0.38921505 -0.18358707 0.70212877 -2.7277906 -1.9182436 0.5392309 -1.0663376
0.66711533 0.70505106 -0.19308023 0.6729316 -1.9634986 -1.7414109 -0.6327065 -1.8927352
0.21437435 0.10922022 0.12820658 0.24397847 0.4451386 -0.5363894 -0.6208692 -2.6443393
0.43616417 0.14453776 0.07430965 -1.0209724 0.52115655 0.5532056 -0.8122598 -2.365308
-0.34965712 -2.122036 0.047933966 0.5286288 -1.197579 -1.4545541 0.69954777 -0.49626186
0.06303061 0.43928054 0.29668844 -0.066795945 -0.75426346 1.1372482 -3.0330079 -1.6497829
-0.43388715 0.6957593 0.29898512 0.3729006 -2.2090452 -3.276926 -0.17392023 0.21935703
0.4560604 0.73124427 -0.2842054 -0.03314091 -3.3818958 0.16935073 -1.0310298 -0.3697746
-0.7954826 -0.9717585 0.19658306 -0.3624591 0.5426719 -2.355439 0.46140492 -0.15805419
-0.033405017 0.3772027 0.28928185 -3.2548642 -0.09254642 0.9551551 -0.73394203 -0.3523288
0.95507944 0.49629545 0.288268 -0.5359885 -0.20536417 -1.3383491 -1.3274478 -0.37983567
00000000: 4af4 35c0 f978 20c0 8867 a9bd de6e db3d
00000010: 4a78 b4bf d3af 13c0 dd37 413f 7b7b 273f
00000020: 815e 0fc0 91c0 5c3f 7d07 86bd f10c 5dbf
00000030: 0427 00c0 0fef be3f 9076 81c0 88fc 35bd
00000040: 5995 873e f716 a7bc 99ad ecbc 134b 063e
00000050: 890a ebbe aebd 16c0 1557 e63e eeff 97bf
00000060: 54ab 10c0 0edc 0ac0 61e5 183e c8df 2d3f
00000070: b291 22c0 9ec5 48c0 208d fbbf 17c4 9c3f
00000080: 7b4f 7bbf 4bea c9be 798f c1be aac0 10c0
00000090: b6d5 923e 6e3e 89be 02a4 083e d3e2 ed3e
000000a0: a1d1 22bf e311 e33e f706 e4bd 2c2d 03bc
000000b0: 2353 e43e d354 9abc 357c 17c0 ea3d bdbe
000000c0: aad3 29c0 84ed 3abf 8093 3f3e 47b1 ea3d
000000d0: ca56 8fbf c82e 1a3f ce84 b73e 074f 3fbd
000000e0: 5329 d7bf 0756 c03e ba54 8dbe 064b 68bf
000000f0: 2fe9 19c0 2719 1fbe b9e0 ffbf 4723 823f
00000100: 4d5f ecbd 38df 77be 5053 753d 9cc4 0fbf
00000110: d582 bf3d 8254 173e dbf0 cb3e ce33 8fbf
00000120: 3abd 4cbd 592f fc3e 7e8b 973e 2a0c 1bc0
00000130: eb65 563e 8b3b 21c0 632f 1ec0 5b02 543f
00000140: 6e3e 553d 3247 c7be 40fe 3bbe b6be 333f
00000150: 1f94 2ec0 0289 f5bf 090b 0a3f c07d 88bf
00000160: 12c8 2a3f 3a7e 343f d3b6 45be 3f45 2c3f
00000170: ec53 fbbf 8de6 debf 0ef9 21bf 2645 f2bf
00000180: f384 5b3e daae df3d 9648 033e 7ed5 793e
00000190: 35e9 e33e d150 09bf 49f1 1ebf db3c 29c0
000001a0: e950 df3e b501 143e a82f 983d 39af 82bf
000001b0: 846a 053f e29e 0d3f 42f0 4fbf 3561 17c0
000001c0: 4206 b3be 70cf 07c0 6856 443d 3854 073f
000001d0: 454a 99bf d42e babf 9015 333f 0916 febe
000001e0: 3116 813d 61e9 e03e 8ce7 973e 50cc 88bd
000001f0: 6917 41bf 5991 913f cd1c 42c0 162c d3bf
00000200: 7526 debe 481d 323f 9414 993e d4ec be3e
00000210: ff60 0dc0 28b9 51c0 2518 32be 219f 603e
00000220: c080 e93e d332 3b3f 5f83 91be c3be 07bd
00000230: fb70 58c0 476a 2d3e c9f8 83bf 1953 bdbe
00000240: bfa4 4bbf 2ac5 78bf 124d 493e 3d94 b9be
00000250: 8cec 0a3f 83bf 16c0 443d ec3e f5d8 21be
00000260: b3d3 08bd b620 c13e c01c 943e b24f 50c0
00000270: fa88 bdbd 0b85 743f a0e3 3bbf 7164 b4be
00000280: 1680 743f 701a fe3e dd97 933e 8b36 09bf
00000290: fc4a 52be 064f abbf cfe9 a9bf d279 c2be

l3.bias f4 [21]
0.116757765 0.5849175 0.072621495 0.006947574 -0.34001213 0.27279344 -0.0007786424 -0.10655794
-0.59577805 0.8314977 -0.35207036 -0.20688026 -0.21670064 -0.55444586 -0.49701473 0.019178053
0.611446 0.09478612 -0.24910532 -0.05331749 -0.14072423
00000000: b21e ef3d 27bd 153f 94ba 943d 7aa8 e33b
00000010: 1216 aebe 95ab 8b3e cf1d 4cba 0d3b dabd
00000020: e984 18bf 09dd 543f 9142 b4be 6bd8 53be
00000030: c6e6 5dbe 2af0 0dbf b778 febe 4b1b 9d3c
00000040: ba87 1c3f 3a1f c23d 7715 7fbe 7163 5abd
00000050: 031a 10be
