models/intent.pth (torch, 27279 bytes, 6 tensors)

l1.weight f4 [20, 230]
000000 cb b3 3c 3d d8 67 e8 3d c1 a2 0f 3d f6 a6 7a 3d
       0.0460699 0.113479316 0.035067324 0.061194383
000010 d4 dd 1a 3e 78 c9 b3 3d f3 5f 91 3d 11 c8 23 3e
       0.15123683 0.087786615 0.07098379 0.15994288
000020 8b c3 04 3e a7 ec f4 3d 47 47 94 3d 8f 9e 79 3d
       0.12965219 0.119592 0.072401576 0.06094223
000030 d9 89 d4 3d 2b fb 8f 3d ff b5 72 3d 84 8f 34 3e
       0.10377855 0.07030328 0.059255596 0.17632872
000040 5f df 4d 3e 40 d5 27 3e 4e 70 52 3e 47 03 7a 3d
       0.2010474 0.16389942 0.20550653 0.06103828
000050 74 7a 22 3d f8 45 36 3f 00 be a6 be da 87 cc bd
       0.03966756 0.71200514 -0.32566833 -0.09986849
000060 77 fc 96 3d ae 00 a6 3d a3 a5 86 3d 89 81 96 3d
       0.073723726 0.081055984 0.065745614 0.073489256
000070 4c 4b 5f 3f 21 ba e0 3d 5a d1 f2 3e 3c 2d 9d 3d
       0.8722427 0.10973001 0.47425348 0.076746434
000080 6f 18 03 3f 2e d1 0f 3e 1d 73 1f 3e 22 c1 a6 3d
       0.5120916 0.1404464 0.15571256 0.08142306
000090 bf 7b 05 3e 9e 0f 28 3e 0a c2 2e 3e 92 ff 89 3e
       0.13035487 0.16412207 0.17066208 0.26952797
0000a0 3d 0a e8 be 54 75 33 3e 61 ad fe 3e 19 7a 18 3e
       -0.4532031 0.17525226 0.49741653 0.14890327
0000b0 dd 68 a9 3e c7 94 f0 3d ff ad 94 3d 72 ba 9d 3d
       0.33087817 0.11747127 0.072597496 0.07701577
0000c0 c7 d5 d8 bd f6 1f f6 3d 0a 83 c5 3d 22 f7 3a be
       -0.1058765 0.12017815 0.09644134 -0.18258336
0000d0 5e 1f 72 3f fb 09 11 3f ce 88 64 3e a3 6f 19 3e
       0.9457911 0.56655854 0.22317812 0.14983992
0000e0 ea 65 4b 3d 45 47 80 3d c4 72 f9 3b 53 40 99 3e
       0.04965774 0.062635936 0.007612558 0.29931888
0000f0 6a 4a f1 3d 48 3f fd 3e 39 6f 45 3e 48 02 31 3e
       0.117817715 0.49462342 0.1928071 0.17286026
000100 ca aa 21 3e fd 9f 07 3e e5 63 d2 bd 71 9e 13 3e
       0.15787807 0.13244624 -0.102729596 0.1441591
000110 17 48 d7 3d 8a 13 32 3e fb d8 90 3d a7 a5 d3 3d
       0.10511797 0.17390266 0.07072636 0.1033433
000120 5e c2 49 be bc 9c cb 3d 7c 5e 5d 3f f8 6c 15 3d
       -0.19703051 0.09942004 0.86472297 0.036480874
000130 bd d6 55 3e d6 af 7f 3d 1a eb bf be 4f a7 e1 3e
       0.20882697 0.06242355 -0.37484056 0.4407296
000140 81 fa 14 bd 8e ff 96 3e 71 7b c9 be 31 fd cd be
       -0.03637171 0.29491848 -0.3935199 -0.40232232
000150 7f ae df be bc d6 02 3e 99 98 f9 3d 63 d0 ea 3e
       -0.43687817 0.12777227 0.12187309 0.4586211
000160 b1 b2 16 3e 4d fd 3e 3e 6b 8a 4d 3d 7b c6 a0 3e
       0.14716603 0.18651314 0.050180834 0.3140143
000170 a8 c7 0d 3e 42 84 04 3e 8e df 82 be c9 7a 64 be
       0.13845694 0.12941077 -0.25561184 -0.22312464
000180 c5 70 b1 3e 8d fb b7 bd 64 ea ad be 01 e9 16 3e
       0.3465635 -0.089835264 -0.33967888 0.14737321
000190 e2 98 1a 3e f1 e0 4a 3e 93 a6 9c bc c6 22 8c 3d
       0.15097383 0.19812371 -0.019122398 0.0684257
0001a0 3a 9b b2 3d ec a1 e9 3e fd 22 e1 bd 70 62 7a 3e
       0.08721013 0.4563135 -0.109930016 0.24451613
0001b0 b3 1f d8 3d 9e 4a 2f 3e 6d da c8 3d 79 0c 4a be
       0.10552921 0.17118308 0.098072864 -0.1973132
0001c0 c8 50 0a 3e 65 01 d7 3d d4 8b 2d 3e 3d 4a 90 3d
       0.13507378 0.10498313 0.16947871 0.0704541
0001d0 b9 73 f7 3d 2c d6 de 3c 8d a0 e4 3e d0 40 31 3f
       0.12082619 0.027201734 0.4465374 0.6923952
0001e0 bf 80 f8 bc 47 8e 58 3e 6b ff ce 3d 36 27 33 3e
       -0.030334828 0.21148024 0.10107311 0.17495427
0001f0 09 27 81 3d c3 e2 10 3e 7e 9d a9 3e 54 66 22 3f
       0.063062735 0.14149003 0.3312797 0.6343739
000200 38 8c 2a 3e b2 71 e0 3e e4 00 14 3e 94 7e 79 3d
       0.16655052 0.43836743 0.14453465 0.06091173
000210 5a 03 54 3d fa 04 48 bf d5 ca 97 3e b7 00 22 3e
       0.05176101 -0.78132594 0.29646936 0.15820585
000220 54 05 10 3f ae f5 85 3e 00 cb 01 3e cb 5d 33 3e
       0.5625813 0.26164 0.12675095 0.17516248
000230 d7 f8 b9 3d ec 50 fd 3d fc f7 b9 3d 86 b4 33 3e
       0.090806656 0.1236895 0.090805024 0.17549333
000240 30 7f 80 3d ba 0d 34 bd 27 48 b7 3d 0c fb d3 3e
       0.06274259 -0.043958403 0.08949309 0.4140247
000250 bd e9 68 3e f6 fe 20 3e 09 27 71 3c 0a 1c 8f 3e
       0.22745414 0.1572226 0.014718779 0.2795108
000260 5d a0 09 3e 01 af 3a 3f d3 8e 94 3d db 3f 84 3d
       0.1344008 0.72923285 0.07253804 0.06457492
000270 d1 d4 2e 3e 27 1c 96 3d 0a d5 8c bf 3c 87 20 3e
       0.1707337 0.073295884 -1.1002514 0.15676588
000280 a4 b1 bf 3d fe 92 7f 3e 0f 52 87 3d e7 f4 8e 3d
       0.09360054 0.24958417 0.06607448 0.06980305
000290 c2 5d 6c 3e 9d 2d ba 3e 42 d8 1d 3d 15 08 21 3e
       0.23082641 0.36362925 0.038536318 0.1572574
0002a0 63 8d e9 be d8 20 70 3f ea 79 67 bd 67 eb a6 3d
       -0.45615682 0.93800116 -0.05651275 0.08150368
0002b0 c6 82 3c 3f 5f 7a e5 3d c5 99 2d bb 3b 3f b2 3d
       0.73637044 0.11204981 -0.002648936 0.087034665
0002c0 a7 ca 05 3e 97 e1 e9 3d 9e 70 07 3e 91 9c 0c 3e
       0.13065587 0.11419981 0.13226554 0.137316
0002d0 d6 09 f0 3c 82 40 cd 3d 3a a2 6d be bf bc f5 3d
       0.029301565 0.100220695 -0.23206416 0.11998891
0002e0 f9 ac e6 3d 69 68 ff 3d 33 f6 44 3e d0 30 23 be
       0.11263461 0.124710865 0.19234543 -0.15936589
0002f0 de 25 00 3e a9 bf 3c 3d 08 13 e0 be e9 7a 0b be
       0.12514445 0.04608122 -0.4376452 -0.13621105
000300 c8 c8 38 3e a5 76 87 3e e4 24 86 3e 34 4f 17 3e
       0.18045342 0.26457706 0.2620002 0.14776307
000310 59 a7 72 3e 11 86 73 3e 1d 4b 0d 3f a8 1a cf 3d
       0.2369665 0.23781611 0.5519274 0.10112506
000320 eb d5 6b 3f d5 1e 0a bf f8 f6 8f 3e 0b c9 3d 3f
       0.9212329 -0.53953296 0.2811811 0.7413489
000330 b8 2d 66 3d 1d 27 b2 3d 45 bc da 3e 2c a4 38 3d
       0.056195945 0.086988665 0.42721763 0.04507844
000340 40 bd 60 3d f5 0d a3 3d 76 23 d5 3c 1b 64 32 bd
       0.054867983 0.079616465 0.026017886 -0.0435525
000350 30 e9 5a bc 14 5a 93 be 94 ea 20 3e cf d9 69 be
       -0.01336126 -0.28779662 0.15714484 -0.22836994
000360 21 a4 e4 3e b4 ed ff be 79 59 22 3e 63 1a cc 3e
       0.4465647 -0.4998604 0.15854444 0.3986388
000370 20 eb 31 3d 9f 27 c2 3d 3d 25 e5 3c e0 a8 2b 3e
       0.043437123 0.094802134 0.027971858 0.1676364
000380 c1 54 48 3e e9 66 36 3e 3a f0 5e 3e 2e 31 e2 3d
       0.19563581 0.17812695 0.21771327 0.110445365
000390 0a 41 a4 3e 9f a4 22 3d e5 ec 74 3e d3 e0 b2 3e
       0.3208087 0.039707776 0.23918493 0.34937152
0003a0 b6 e9 26 3e 50 d1 25 3e ab 36 43 3e de 84 d0 3d
       0.16300091 0.16193128 0.19063823 0.101815924
0003b0 7c 89 75 3e 3e e5 72 3e c6 f0 43 3e df cc 85 3e
       0.23978227 0.23720261 0.19134817 0.26132867
0003c0 c9 b3 97 3e a5 fd b3 3e 0c c3 56 3e bf b3 30 3e
       0.29629353 0.35154453 0.20972842 0.17256068
0003d0 27 e3 ac 3d 9f 00 3e 3e 0a 08 b4 3e 03 cf 8b 3e
       0.08441763 0.18554924 0.35162383 0.27306375
0003e0 d4 e7 2f be de 10 3d 3e a1 cb 6d 3e 89 3d d9 3e
       -0.17178279 0.18463466 0.2322221 0.4242976
0003f0 69 56 96 3f db cd 49 3f a1 0b 95 3e 80 98 82 3e
       1.174512 0.78829736 0.29110435 0.25506973

l1.bias f4 [20]
000000 03 4f 38 3f 9c 2d b6 3f d6 2b 3f 3f 6b 1b 57 3f
       0.7199556 1.4232669 0.74676263 0.8402621
000010 a5 b8 21 3f 17 06 33 3f 27 d8 55 3f 87 0b 39 3f
       0.6317237 0.6993117 0.8353295 0.72283214
000020 b6 b1 57 3f f2 7b 41 3f f9 b3 87 3f f5 8e 7e 3f
       0.8425554 0.7557975 1.0601798 0.99436885
000030 37 e4 8c 3f c7 94 54 3f 24 61 40 3f 53 e5 35 3f
       1.1007146 0.83039516 0.75148225 0.71053046
000040 3a 55 79 3f 00 8f 43 3f c4 5e 14 3f 2f a8 81 3f
       0.9739567 0.76390076 0.579571 1.012945

l2.weight f4 [20, 20]
000000 70 f8 0c 3f 6c e2 a6 3e 09 39 c0 3d f8 dc 63 3f
       0.55066586 0.3259462 0.093858786 0.89009047
000010 d8 82 08 3e 36 45 97 3f 62 c3 54 3f 9f e2 b8 be
       0.13331163 1.1817997 0.8311063 -0.36110398
000020 9b 03 d8 be e0 6c 95 3f 25 e9 27 3f ce 63 51 be
       -0.4219025 1.1673851 0.65590125 -0.20448229
000030 e9 33 c7 3e 21 3e a1 be f5 46 d6 be 75 b1 be 3f
       0.38906792 -0.31492713 -0.4185101 1.4897906
000040 3d d4 b8 be b9 57 84 3e 0c 11 44 3c 19 d4 67 3f
       -0.36099425 0.25848177 0.011966955 0.9055801
000050 ec 30 9b 3f d7 40 13 3d 06 e1 6d 3e 2c ed 25 3f
       1.2124305 0.035950508 0.23230371 0.6481502
000060 f6 b4 b8 3f a3 97 b0 3e 04 ee 3a 3f 75 6d 5f bf
       1.4430225 0.3449069 0.73019433 -0.87276393
000070 48 ae 4f 3f 66 bb 3f bf a7 43 b4 3f b9 52 c6 3f
       0.8112531 -0.7489532 1.4083146 1.5493995
000080 2e da 30 3f f8 de 0e be 05 3b 35 be bc 7a b0 3e
       0.69082916 -0.13952243 -0.17698295 0.3446864
000090 d4 10 7a 3f 7d 65 8d 3f 03 ad b6 bd 53 6b 8d be
       0.9768193 1.1046597 -0.08919718 -0.27620944
0000a0 32 19 95 3f d1 bd 5a 3f a8 e8 b5 3f 31 c1 bf 3e
       1.1648314 0.85445887 1.4211626 0.3745208
0000b0 e8 74 27 bf d6 bc c3 3e 94 92 ff 3e dd 1a 74 3f
       -0.6541276 0.38230008 0.49916518 0.9535349
0000c0 1d 07 33 be 49 f8 b9 3e b5 1a 01 3e f5 bd 53 3f
       -0.17483182 0.3632224 0.12607844 0.82711726
0000d0 ce 84 20 3f 59 f3 5e 3f 15 b3 5b 3f df 7a 38 be
       0.62702644 0.8709007 0.8582013 -0.18015622
0000e0 87 07 90 3f 90 f2 b1 be cd 1f cd bd f4 06 b0 be
       1.1252297 -0.34755373 -0.10015831 -0.34380305
0000f0 53 07 a4 3e c9 30 b3 3f 37 1b 68 bf 8e 84 4f 3f
       0.32036838 1.3999263 -0.90666527 0.8106164
000100 91 8b b1 3f f8 03 3e 3f f5 6f 81 3f c7 d7 be 3b
       1.3870717 0.74224806 1.0112292 0.0058240625
000110 08 86 c1 3f d4 6d 03 3f f4 46 89 3f 63 e0 1a 3f
       1.5119028 0.5133946 1.0724778 0.60498637
000120 cd d4 13 bf f5 0b d1 3e bd d2 9b be ba 5a aa 3e
       -0.57746583 0.40829435 -0.30434218 0.33272344
000130 53 d8 a0 3f 4f f0 23 3f 5a 75 a8 3f c8 cc 9d 3f
       1.2566017 0.64038557 1.3160813 1.2328119
000140 aa 78 58 3f 08 d3 c4 3d d3 9d b8 3e 9c cb 2f 3f
       0.8455912 0.096105635 0.3605791 0.6867006
000150 bf a4 62 3e c2 a9 42 3f 9d ae 99 3f d8 92 3b bc
       0.22133158 0.7604028 1.2006413 -0.0114485845
000160 13 6e 07 be 4a 32 db 3e 55 e4 bc 3f 60 50 03 3f
       -0.13225584 0.42811805 1.4757181 0.5129452
000170 06 d7 85 bf 1f e1 54 3f 4f a6 21 3f 76 5d 67 3e
       -1.0456245 0.8315601 0.6314439 0.22594246
000180 30 77 00 3f 26 82 c3 be 7f 16 7d 3f 4d 02 fc 3e
       0.50181866 -0.38185233 0.9886245 0.49220505
000190 c9 d5 6b 3d 0b fa e7 3f ce 63 a7 bf 53 77 fd 3e
       0.05757693 1.8123182 -1.3077333 0.495051
0001a0 c4 90 0e 3f 44 08 67 3f 8d dd a0 bc 16 5a b4 3e
       0.55689645 0.9024699 -0.019636894 0.3522498
0001b0 64 69 93 3f 15 73 a6 3f ff b2 39 3f 3a 1e 34 bd
       1.1516538 1.300387 0.7253875 -0.04397414
0001c0 d6 c8 93 3f 61 14 a4 3d a7 44 33 3f ad a9 33 3f
       1.1545665 0.080116995 0.7002663 0.7018078
0001d0 0b bd 60 3e 32 c4 30 3f 2f e0 86 bf c4 74 89 3e
       0.21947114 0.6904937 -1.0537165 0.26846898
0001e0 30 97 04 3c 43 fa 54 be 1f b6 4a be a2 4d 38 be
       0.0080926865 -0.20798592 -0.19796036 -0.17998365
0001f0 68 fe c9 bc d4 77 39 bd 64 81 5d bd 52 6c 55 be
       -0.024657443 -0.045280293 -0.054078475 -0.20842102
000200 f4 c5 0f 3e 44 df 92 3d 44 1d da 3d 10 f4 ae bd
       0.14040357 0.07171491 0.10650113 -0.08542645
000210 ac f9 ce bd 3f fc 36 be f4 b4 8b bd 80 8d 94 3d
       -0.10106215 -0.17869662 -0.068216234 0.072535515
000220 dc b0 3c be 40 34 8c 3c 81 3d dd bd 3c 98 2e 3e
       -0.18426841 0.017114758 -0.108027466 0.1705026
000230 a6 61 18 3f 7f c0 17 3f d5 b8 82 3f 4c bc 97 3e
       0.59524 0.592781 1.0212656 0.29635847
000240 58 c7 c5 be a8 cf 0c 3f 97 80 15 3f 2b c7 4b 3f
       -0.3862865 0.5500436 0.5839934 0.7960078
000250 df 87 74 bd e9 74 6c 3f 0e 3c 91 be a5 01 ea 3e
       -0.05969989 0.9236589 -0.2836613 0.4570438
000260 41 b1 4f be 83 53 bd 3e f3 11 3c 3e ad 3f 69 3f
       -0.20282461 0.36977777 0.18366222 0.91112787
000270 2a c5 98 3f 0c 19 ae be 21 61 3b 3f 58 9a 2f 3f
       1.193517 -0.34003484 0.7319508 0.68594885
000280 f6 c2 a4 be ad 3d 8b 3f 74 79 96 3e 91 5d 8e 3f
       -0.32179993 1.0878197 0.29389536 1.1122304
000290 f6 8b 55 3f 02 52 b2 3f 6d 42 de be 45 ed 80 3c
       0.8341669 1.3931277 -0.43410054 0.015738139
0002a0 e7 cb 8d 3f c5 5e 9f 3f 96 9f 54 bf 65 a5 21 3f
       1.1077851 1.2450796 -0.8305601 0.63143
0002b0 97 fa 66 bf 91 ff 53 be 4e 13 c2 be ec 2f 6d 3f
       -0.9022612 -0.2070296 -0.37905353 0.9265125
0002c0 cd 17 9b 3f fe 40 00 3f 4a 5f 17 3f f9 5e db 3f
       1.2116638 0.5009917 0.59129775 1.7138358
0002d0 ef 04 b3 3c de 4b f1 be aa c3 85 3f ed 26 4e 3f
       0.021852938 -0.47128195 1.0450337 0.80528146
0002e0 62 9a a0 be f5 37 47 3f 0a de 08 3f 76 0f 1b 3e
       -0.31367785 0.7781976 0.53463805 0.15142617
0002f0 61 68 a4 be 2d 07 65 3f 04 c3 94 be 26 83 60 be
       -0.32110885 0.89464074 -0.29055035 -0.21925029
000300 87 32 fa be f5 d8 46 be 58 3d 93 3e 09 57 b0 3f
       -0.48866674 -0.194187 0.2875774 1.3776561
000310 38 51 86 3f 47 ca 88 be f7 22 74 3f ef 1a 86 3f
       1.0493536 -0.26716825 0.9536585 1.047697
000320 0b a6 e5 3e 55 d9 82 3f 9d 5a 9d 3f c3 9d 39 3c
       0.44853243 1.0222574 1.2293278 0.011329117
000330 8c 1b f6 be 4f bc fd bd 7f bd 20 3f a5 cb 3e 3f
       -0.48067892 -0.12389433 0.6278915 0.74529487
000340 f0 01 96 3f 3f 2d 2f 3f 89 d4 6a 3f 7f bb 31 3f
       1.1719341 0.68428415 0.9173055 0.6942672
000350 44 82 84 3f e3 1e 67 3f 87 1a 29 3f 33 16 d0 3e
       1.0352254 0.90281504 0.660561 0.40641937
000360 c3 e4 0d 3f f7 19 65 bf 08 38 fb 3e dd 9a 26 3f
       0.5542719 -0.89492744 0.49066186 0.6508005
000370 36 12 39 3f 94 b4 0b 3e af 93 54 3f 5c db 6c 3f
       0.7229341 0.13643104 0.8303785 0.92522216
000380 24 65 6b bf 33 7d f5 3c 50 61 00 3e ad c4 98 3e
       -0.91951203 0.029966926 0.12537122 0.29837552
000390 f6 83 0a bf 26 59 7d 3f fb 9b 57 3f bf cb 8d 3d
       -0.54107606 0.98964155 0.8422238 0.06923627
0003a0 e2 64 80 3f 69 24 6a 3e 58 d7 eb 3d ca 45 b1 3f
       1.0030787 0.22865452 0.11515683 1.3849423
0003b0 75 26 4f 3f 11 3e 14 bf 55 98 d1 3d 65 4b a0 3f
       0.80918056 -0.57907206 0.10234133 1.2523009
0003c0 63 9f c0 3e d9 f4 cf 3f e8 3f 71 3e 7c 64 04 3e
       0.37621602 1.6246597 0.23559535 0.12928957
0003d0 82 23 d0 3e 2b e8 af 3e 5d 21 90 bd bd 4f 96 3f
       0.4065209 0.34356818 -0.070376135 1.1743084
0003e0 5f cd 42 3f 36 32 b4 3d f1 34 10 3e 02 b6 1b 3f
       0.7609462 0.087986395 0.14082696 0.60824597
0003f0 f7 e9 c8 3f 0a d3 c5 3f 95 da 9d 3f 68 8f 97 be
       1.56964 1.5455029 1.2332331 -0.29601598

l2.bias f4 [20]
000000 4f 14 82 be e0 36 2c 3f 6d 77 48 3e 18 cb 76 3e
       -0.2540612 0.6727123 0.19576807 0.24100912
000010 06 ae 4a 3d 59 3c fc bd a4 c7 51 bd b6 c9 3e 3d
       0.049482368 -0.12316198 -0.051215783 0.046579085
000020 bc a0 e6 3a eb 7f 8e 3e 7a a1 c7 3e 8d 26 3c 3e
       0.001759551 0.2783197 0.38990384 0.18374081
000030 29 ee 3d 3f 8c 49 86 bd 3a a7 8a 3e 89 7c 1a 3f
       0.7419153 -0.06556997 0.2708071 0.60346276
000040 1e 74 89 3d f0 11 4d bd f1 58 80 3e 9e 76 6d 3d
       0.06711601 -0.050065935 0.25067857 0.05797445

l3.weight f4 [21, 20]
000000 cc 6e bc bf 78 03 09 3f 3b 7b db bf 7f e7 2a 3f
       -1.4721313 0.5352092 -1.7146982 0.66759485
000010 7b f4 55 bf 69 63 f9 bf 38 3b 94 bd fe dc 56 be
       -0.8357617 -1.9483463 -0.072378576 -0.2098274
000020 24 7d 17 3f 0d 4e 18 3b 31 58 22 bf d9 61 b1 bf
       0.59175324 0.0023239881 -0.6341582 -1.3857986
000030 34 97 36 3e 7f b5 c8 bf d5 85 72 bf a9 87 54 3f
       0.17831117 -1.5680388 -0.9473546 0.830195
000040 ea 22 68 bf 8d 21 b9 be eb 65 71 bf 03 2c bc bf
       -0.90678275 -0.3615841 -0.9429614 -1.4700931
000050 6a 0e 9b 3a 51 7a 52 bf fe 43 46 bf a6 56 82 be
       0.0011829857 -0.8221789 -0.774475 -0.25456733
000060 5e c2 e1 be a0 9a 18 bf 4c ac ee 3d f0 49 3a 3e
       -0.44093603 -0.5961094 0.11653957 0.18192267
000070 19 12 50 be af 92 7d 3e a5 b3 b1 bc c5 9a 70 3d
       -0.20319404 0.24762987 -0.021692107 0.05874135
000080 ab ab 49 bf e8 d1 92 bf 4a 2e c4 bd 1d 41 9f 3e
       -0.7877757 -1.1470308 -0.095791414 0.31104365
000090 74 b6 1f bf 56 76 ad bf 65 0a 85 bf 6e 4f f3 bf
       -0.62387776 -1.3551738 -1.0393797 -1.9008615
0000a0 c6 01 d3 bf b8 19 a2 bf 29 81 22 3e 93 b1 51 be
       -1.6484916 -1.2664099 0.15869583 -0.20477895
0000b0 1f ed ee bd 04 07 ff bf 5c b7 84 bd 70 3d 41 bd
       -0.11666321 -1.9924016 -0.064802855 -0.047177732
0000c0 f2 ce 92 3e 7e b2 8d bc c5 a1 16 3e 78 33 a5 bf
       0.28673512 -0.017297026 0.14710148 -1.2906332
0000d0 ed 7a b0 bd 46 36 5d be e0 6f fe bf 0d 11 0e 3e
       -0.08617196 -0.21602735 -1.9877892 0.13873692
0000e0 2a fc e9 3d 52 19 8d bf ff a7 0a 3e 36 75 81 bf
       0.114250496 -1.1023352 0.13540648 -1.0113895
0000f0 41 4f 82 3e 50 bf 0b bb 3f b1 5d bf b7 34 8a 3e
       0.2545109 -0.0021323748 -0.8659858 0.26993343
000100 67 2e 8c 3e 24 87 28 c0 b4 8f 1e be 76 7b b2 bc
       0.27379152 -2.6332483 -0.15484506 -0.021787386
000110 55 c7 9e be f9 6a 96 3e f8 9d 2f be 8d 22 19 bf
       -0.31011453 0.2937849 -0.17150104 -0.59818345
000120 e8 66 bb bf 84 89 b3 bf af 70 1a bf 4e d6 1f 3c
       -1.464078 -1.4026341 -0.6032819 0.009755684
000130 5d 52 c8 3e 07 d6 01 c0 64 13 0f bf 2c 87 10 bf
       0.39125338 -2.0286882 -0.5588896 -0.56456256
000140 bf bb 3e 3d 28 19 56 be 8b 27 5c be 51 ec 5c bf
       0.046565767 -0.20908034 -0.2149946 -0.8629809
000150 87 ef 88 be 33 4c 8a 3d 44 08 39 3e 53 40 14 bf
       -0.26745245 0.06752815 0.1806956 -0.5791065
000160 35 ef 77 bf 7c a1 1b bf 86 5e 52 bf 97 fe 65 be
       -0.96849376 -0.6079328 -0.8217548 -0.224604
000170 fd a7 b6 be 51 05 c4 bd db 63 18 be 04 99 bd bf
       -0.3567504 -0.095713265 -0.14881842 -1.4812322
000180 c9 5d 39 bf 0f 3a 04 bf 65 7e b0 be 4c 94 47 be
       -0.7240873 -0.5165109 -0.3447143 -0.19490165
000190 1b 2a 4a be 65 11 51 3c 21 8c a8 bf 83 67 99 3d
       -0.19742624 0.012760495 -1.3167764 0.074904464
0001a0 53 56 db bf 14 7f 91 3f 58 9a 4c 3e ae eb a0 bf
       -1.7135719 1.1366906 0.19980752 -1.2571924
0001b0 3d 1f 11 bd 73 5f b1 bf 6b 14 67 3d 68 23 ea be
       -0.03543018 -1.3857254 0.056415956 -0.45730138
0001c0 70 54 ce 3d da f4 4c bf 3f d3 ce 3e 6e fd b6 3e
       0.10074699 -0.80061114 0.40395543 0.35740227
0001d0 6c 75 96 bf 1d a2 02 c0 a0 f5 96 bf 0b 6e ff bf
       -1.1754584 -2.0411446 -1.1793709 -1.9955457
0001e0 93 4b 08 c0 c0 6c 2a 3f 5e 97 68 bc 88 e1 9f be
       -2.1296127 0.6657219 -0.014196245 -0.31226754
0001f0 91 2b 86 bf b2 21 f2 3e e8 dd 1d 3e 7e e5 c5 bf
       -1.0482045 0.47291332 0.15416682 -1.546066
000200 03 63 19 c0 4c 93 1d bf 73 1e 7d 3d dd ec 43 bf
       -2.3966682 -0.6155288 0.061796617 -0.765333
000210 41 2a a6 3e da 18 31 3e 18 87 6c 3e d8 e0 ec 3d
       0.32454112 0.17294636 0.23098409 0.11566323
000220 94 97 3d bf 7d 58 f0 bf 99 03 6b bf 9f 31 ea be
       -0.74059415 -1.8777004 -0.91802365 -0.45740983
000230 d1 10 39 bf 3e c8 3f 3e 23 c3 25 bf 2a 12 71 3e
       -0.72291285 0.1872873 -0.6475088 0.23542085
000240 c5 66 19 3f dd 7e d9 bf ea af ab bd 2a 86 47 bf
       0.5992244 -1.6991841 -0.08383162 -0.77939093
000250 0a 1d c5 bf cf 5c b8 be 1d 96 f9 3e da 1c 92 bf
       -1.5399487 -0.36008307 0.4874734 -1.1415055
000260 52 41 37 be 9e b9 03 bf 50 0e a3 bf a3 00 79 bf
       -0.17896011 -0.51455104 -1.2738743 -0.97266597
000270 c6 d6 d8 3e 4b df 11 c0 31 13 0a 3d a2 fe b3 3e
       0.4235136 -2.2792537 0.03370971 0.35155207
000280 2d fc 83 3e 65 15 9f 3e 39 d1 16 bf c2 78 0c bf
       0.25778332 0.3107101 -0.58913 -0.5487176
000290 c8 21 d8 3d 5a 8d 1e c0 c4 11 33 bd 7a b8 a8 be
       0.10553318 -2.4773774 -0.043718114 -0.32953244
0002a0 e5 0d 88 be ce 96 6c 3e 96 b5 29 bf ac ef 20 be
       -0.265731 0.23104402 -0.66292703 -0.15716428
0002b0 c1 1f 87 bf 4f 19 1d bf 00 48 da be 8e 92 74 be
       -1.0556566 -0.6136674 -0.42633057 -0.23884031
0002c0 ef cc ad bf 65 f4 d8 3c 92 04 13 be db f9 ce bb
       -1.3578166 0.026483724 -0.14357212 -0.006316406
0002d0 1a 65 98 bf b6 f5 e7 bf b8 fb 7c be 61 13 cb bf
       -1.1905854 -1.812186 -0.24705398 -1.5865289
0002e0 f7 14 4d bf a5 3b 64 3f 60 46 6e bc 7e e0 5c bf
       -0.80110115 0.8915351 -0.014543146 -0.8628005
0002f0 b9 6c 91 bf 3b bd 0a bf 6f ba 15 bf e7 d8 b9 bf
       -1.1361305 -0.5419499 -0.584876 -1.4519318
000300 f3 20 fa 3e 17 44 b2 3e 80 e7 2d 3c 7c d8 21 bf
       0.48853263 0.34817573 0.010614276 -0.63220954
000310 7b 65 f4 3c a8 c2 2b bf b4 37 57 bf e7 09 84 3d
       0.029833546 -0.67093897 -0.8406937 0.06447201
000320 4f 59 f7 be 04 8e e2 3e e0 aa 1b 3e 35 5c 67 3e
       -0.48310325 0.44248974 0.15201902 0.22593768
000330 8b 91 52 be 90 11 b0 bf 94 67 e2 bd 40 a0 ec be
       -0.20563333 -1.375536 -0.11054912 -0.4621601
000340 26 ed ae 3e b8 2e 35 bf bf 91 b3 bf a6 ab bb bf
       0.34165305 -0.7077441 -1.4028853 -1.4661758
000350 9b 20 93 be 85 d5 44 3e 31 57 8a bf 48 18 26 bf
       -0.28735813 0.19222076 -1.0807859 -0.648808
000360 63 fd 01 c0 19 ee a1 3d 51 80 92 3e 35 bb 65 bf
       -2.0310905 0.07906742 0.28613523 -0.8973878
000370 d8 21 ad 3e ab 67 35 be 48 6c fd bf 01 fc 01 bf
       0.33814883 -0.17715327 -1.979867 -0.5077515
000380 5f f9 8e bf 3b 14 12 be aa 35 5c be 6d e6 9f bf
       -1.1169852 -0.1426553 -0.21504846 -1.2492195
000390 f2 66 a9 3d b8 39 c5 bd 78 42 b1 bf 0e d0 25 bf
       0.082715884 -0.096301496 -1.384841 -0.6477059
0003a0 98 36 8a bd 68 75 8f be 93 fa 93 3d 7f e6 d8 bd
       -0.06748694 -0.2801926 0.072255276 -0.10590839
0003b0 9e 78 cb bf 0b dc a7 3e d5 fb 2b bf b2 09 f0 be
       -1.5896184 0.32785067 -0.6718114 -0.46882397
0003c0 b1 05 f6 be 20 52 b1 bf 62 09 0c 3d ef c6 f6 bf
       -0.48051217 -1.3853188 0.034188636 -1.927946
0003d0 03 74 00 3e bf 0d b7 bf 10 83 65 3d b9 6d 8f 3e
       0.12544255 -1.430107 0.056033194 0.280134
0003e0 26 54 90 be 54 c4 70 3e a8 0d af 3b 81 77 dc 3d
       -0.281892 0.23512393 0.005342204 0.10764981
0003f0 45 fd 99 bf f7 fd d3 bc d6 15 d1 bf 64 83 7e bf
       -1.2030417 -0.025877936 -1.6334789 -0.99419236

l3.bias f4 [21]
000000 b1 1c f6 3d f6 22 5c be 16 fc 8e 3d a1 a4 89 bd
       0.12017191 -0.21497712 0.06981675 -0.067208536
000010 6f 27 f1 be 91 65 89 bd 2e a3 8c 3e da 7d 38 3d
       -0.47100398 -0.067088254 0.27468246 0.045041896
000020 3c 0c 87 be 83 9e 70 bc 3a e7 91 bc 7c 79 1c bd
       -0.26376522 -0.01468623 -0.017810453 -0.038201794
000030 7d a7 39 be f9 c4 ee bd 50 c2 9f be db 60 8a 3e
       -0.18130298 -0.11658663 -0.31202936 0.2702702
000040 43 e2 41 3e f7 17 95 3b 0e 30 27 3e 19 0c 6f be
       0.18933968 0.004549976 0.16326925 -0.23344459
000050 f5 2d b0 be
       -0.34410062
