models/product.pth (torch, 19927 bytes, 6 tensors)

l1.weight f4 [24, 113]
000000 61 56 bd 3e 67 df 3b be f7 8a c3 3e 27 e9 bb 3e
       0.36979964 -0.1834694 0.3819196 0.3670132
000010 0b 12 b2 3d 8c ed d6 3e 96 0b 93 3c 0b dd 39 bd
       0.08694848 0.4197811 0.01794986 -0.04537682
000020 dc 40 1a be d7 2c 18 3f a2 e6 59 be 00 7a a2 3d
       -0.15063804 0.5944342 -0.21279386 0.07933426
000030 36 38 a7 bc 94 08 df bd 97 23 12 3f c1 36 92 bd
       -0.020412546 -0.10890308 0.57085556 -0.0713935
000040 7d e6 bd 3d 37 ed 2f 3d f8 7f 8b bd 05 fb 32 3f
       0.09272478 0.042950835 -0.068115175 0.69914275
000050 e5 25 89 be 2e 72 6b be 8c a3 e5 be de bc 85 3e
       -0.26786724 -0.22992775 -0.4485134 0.26120657
000060 84 94 ae be 6c 74 d3 3e 2e b5 55 bd 79 c6 2c 3f
       -0.34097683 0.4129976 -0.05217474 0.67490345
000070 07 66 c6 3e b6 5f 00 3f 26 46 7a bd 06 c6 bf 3e
       0.38749716 0.50146043 -0.061102055 0.37455767
000080 5f 95 cd 3e da 1d c5 3e 6b d8 7e 3b 49 3b df 3e
       0.40153024 0.38499337 0.003888632 0.43599918
000090 21 ac b8 be 63 5f 00 3f f0 54 b9 3e ad 77 45 3c
       -0.36068824 0.5014555 0.36197615 0.012052459
0000a0 a1 0e da bd b3 14 df bd b2 b4 cf 3d 42 a8 6d be
       -0.106473215 -0.1089262 0.10141887 -0.23208717
0000b0 87 94 61 3d 02 3e 9d be 9d ed 76 be 6a 72 8a be
       0.055073287 -0.3071137 -0.2411408 -0.27040416
0000c0 27 10 de bd 1f 38 0b 3f 59 c5 c2 3e 1c ce 0a be
       -0.108429246 0.5438251 0.3804119 -0.13555187
0000d0 00 23 6b bd 86 39 79 be ca 6d 4d 3e 7f 70 a9 be
       -0.057406425 -0.2433835 0.20061412 -0.3309364
0000e0 57 1b ed bd 3f 60 30 be c6 97 53 3f aa 97 e3 3e
       -0.1157748 -0.17224215 0.8265346 0.44451648
0000f0 b1 6d d6 bd cd e9 2b bd 8f 10 e4 3d 18 09 ba be
       -0.10470141 -0.041971017 0.11135971 -0.36335063
000100 e7 c5 cf 3e d9 29 0f 3f 50 3e cd 3e be 03 67 3d
       0.40580675 0.5592323 0.40086603 0.056400053
000110 4e a0 3f be ba a2 e2 3e c0 41 d0 3e 63 55 ee 3e
       -0.18713495 0.44264776 0.40675163 0.4654952
000120 4f ba 71 be 8e b6 17 3f 02 92 15 3e 07 d0 86 be
       -0.23606227 0.5926293 0.14606479 -0.26330587
000130 95 12 c3 3e 81 f5 86 3e 50 57 4b be c3 d4 42 be
       0.38100114 0.2635918 -0.19857526 -0.19026475
000140 c5 c8 9e be 2b 19 13 3f 60 77 0a 3f a3 27 99 be
       -0.3101255 0.5746028 0.540884 -0.29913053
000150 f0 96 e5 be 70 f9 03 be c3 94 e5 3e 44 36 77 be
       -0.4484172 -0.12888122 0.4484006 -0.24141794
000160 48 91 46 3e 15 21 54 3d 60 14 b3 be 44 79 7f 3d
       0.19391358 0.051789362 -0.34976482 0.062371507
000170 ae 77 c5 be 10 f4 af 3d 55 94 9e bc f1 49 d9 be
       -0.3856787 0.08591473 -0.01935784 -0.42439225
000180 d5 c8 28 be 5e 88 97 3e 95 cb 33 3d 76 6e a6 3e
       -0.16482861 0.29596227 0.043895323 0.3250615
000190 e9 4f 51 be cc 8e c6 3e ee ef 08 3c 58 a9 09 be
       -0.2044064 0.3878082 0.008357985 -0.13443506
0001a0 47 d1 b9 3e ba aa a9 3e e8 bf e0 3e d4 28 ca 3e
       0.36292478 0.33138067 0.43896413 0.39484274
0001b0 f3 8c ae be 1c 43 3f be cc 47 d6 3e 06 53 a6 be
       -0.3409191 -0.18677944 0.41851652 -0.32485217
0001c0 c5 b3 d6 3e 16 a2 bf 3e 78 54 a5 3e 8c 80 4d 3e
       0.41934028 0.3742835 0.32291007 0.20068568
0001d0 e2 1b c4 bc 4f f4 9d 3e f7 02 76 3d 61 b4 97 3e
       -0.023939077 0.30850455 0.06006142 0.29629806
0001e0 63 af 99 bd 27 8f 29 be 38 93 53 be 96 c9 16 be
       -0.075041555 -0.16558515 -0.20661628 -0.14725336
0001f0 46 d7 76 be 68 a0 a0 be 2c b3 84 3e a4 48 92 3d
       -0.24105558 -0.3137238 0.25917947 0.07142761
000200 f6 dc d1 3e 46 c2 ad 3e 41 0b d5 3e 88 e2 a7 3e
       0.40988892 0.3393728 0.4161015 0.32790017
000210 6d 13 ec 3e 0d 69 96 3e 0b fe 92 bd 6d ea 0b bf
       0.4610857 0.29377022 -0.07177361 -0.5465458
000220 f3 4b b8 3e 16 a3 fe be 00 78 26 be 93 21 92 3e
       0.35995445 -0.497338 -0.16256714 0.2854124
000230 6f ee 71 3e c8 21 30 be 1a bd 80 3d 85 99 17 be
       0.23626111 -0.17200387 0.06286068 -0.14804657
000240 d3 f0 5d 3f 7d db 62 3e 02 8f 8a 3e 86 0b d5 bd
       0.86695594 0.2215404 0.2706223 -0.104025885
000250 86 9c 86 3e d2 8c 12 3f 26 19 55 be 3e 5e 2e 3d
       0.26291293 0.57246125 -0.20810375 0.042570345
000260 f9 31 93 3e 35 d8 2b be 09 ee 64 be 3a ab 04 3f
       0.28749064 -0.16781695 -0.22356428 0.5182377
000270 97 29 2b be 0d bc b8 3d 35 f4 91 3e 50 eb 44 be
       -0.16715084 0.09020243 0.28506628 -0.1923039
000280 f2 a9 cf 3d 63 49 9a 3e 62 8f c1 3e 31 ba bc 3e
       0.10139836 0.30134115 0.37804705 0.36860803
000290 a7 70 5b be 61 96 9c 3e 07 8f 52 be 5b 98 d6 be
       -0.21429692 0.3058348 -0.20562373 -0.41913113
0002a0 db a4 e8 3e f5 80 37 3e 99 ad cc 3e 4a 26 a1 3e
       0.45438275 0.17920287 0.39976195 0.31474525
0002b0 50 95 89 3e b3 9b 20 be d8 cd 75 3e 9e 36 a5 3e
       0.2687173 -0.15684395 0.24004304 0.32268232
0002c0 d9 89 19 3f c2 de a6 3e ae 7f 99 3e 10 45 04 be
       0.59975964 0.32591826 0.29980224 -0.1291697
0002d0 01 58 93 3e 9a f8 c9 3e 32 31 11 be 02 35 5b be
       0.2877808 0.3944748 -0.14178923 -0.2140694
0002e0 c2 b8 82 bd 34 62 c5 3e bf fb 8a 3e 22 62 84 3e
       -0.06382896 0.38551486 0.27145192 0.2585612
0002f0 33 ca 1e 3f 6b e5 1c be a6 2e 96 3e 05 48 f9 3e
       0.6202728 -0.15321891 0.29332465 0.4868776
000300 e0 44 94 3e ae 86 ae be 37 19 66 be 0b b7 1d 3f
       0.28958797 -0.34087127 -0.22470556 0.61607426
000310 70 fb 6b 3e b4 f3 27 3f 64 12 3d be 6f b3 d9 3e
       0.23045135 0.65606236 -0.18464047 0.4251971
000320 21 d2 38 3e ca 36 25 3f 74 2c c8 3e 73 55 f1 3e
       0.18048908 0.64536726 0.39096415 0.47135505
000330 bc e5 a3 3e a4 3e f2 3e 2f 29 14 3f 65 45 0a bd
       0.3201121 0.47313416 0.5787534 -0.033757586
000340 ba a7 13 3f c6 b8 c7 3e e4 4d 27 bb e6 11 3f 3e
       0.57677805 0.39008158 -0.0025528604 0.18659171
000350 60 33 2b be 6f d8 9c 3e 1d e9 b9 3e 64 86 d8 bd
       -0.16718817 0.30633876 0.36310664 -0.10572508
000360 fd 0b 37 be bc 17 8e 3e ce e6 86 bd 0a 39 16 3c
       -0.17875667 0.27752483 -0.06586991 0.009168873
000370 67 d4 65 be da a5 a1 3e bb 8b 02 be 13 eb fa 3d
       -0.22444306 0.31571847 -0.12748615 0.12251868
000380 ef ee 8f 3e de 77 c4 bc 78 72 d2 bd 3a 8d b5 3e
       0.2811198 -0.023982938 -0.102757394 0.3545931
000390 38 4b 6d be 0b 0f 67 3e ac 3d f0 bd 23 72 06 be
       -0.23173225 0.22564332 -0.11730513 -0.13129477
0003a0 e4 c6 c9 bd 4d a0 13 be 02 44 c3 3e 51 b0 15 3f
       -0.098523885 -0.14416619 0.38137823 0.5847216
0003b0 17 76 80 be e1 60 e8 3e 48 d4 4e bf 32 78 44 3e
       -0.25090095 0.45386413 -0.80792665 0.19186476
0003c0 ff cb 37 bf 9e ab 2b 3f d6 d5 04 be cb a2 b6 be
       -0.7179565 0.6705874 -0.12972197 -0.35671076
0003d0 b5 e6 0f 3f 20 e1 04 bf 18 f7 04 3f 39 bb 5d be
       0.56211406 -0.51906013 0.51939535 -0.21653451
0003e0 f9 ab b4 3e 26 0a 19 be 82 ac 91 be e1 9b 17 be
       0.35287455 -0.14945278 -0.28451926 -0.14805557
0003f0 32 ac 1e 3f 84 98 9f be 4d 1c 97 bd c1 6e 1c 3e
       0.619815 -0.31171048 -0.07378445 0.15276624

l1.bias f4 [24]
000000 cf be ea 3e d5 f6 b8 3e 63 06 5f 3e 48 6e ed 3e
       0.458487 0.36125818 0.2177978 0.463732
000010 3f 9f c4 3e cf 74 ac 3e 43 a7 fa 3e 0e fb d9 3e
       0.38402745 0.33682868 0.48955736 0.42574352
000020 b5 98 de 3e 34 f5 dc 3e 2b bc 09 3f 5f dd dc 3e
       0.4347588 0.43155825 0.53802747 0.43137643
000030 73 62 dc 3e a7 bd c7 3e b0 bd 66 3e b8 de c6 3e
       0.4304386 0.3901188 0.22533298 0.38841796
000040 e4 2b a0 3e 4b 46 99 3e 8f 23 8f 3e 73 a7 e9 3e
       0.31283486 0.29936442 0.27956817 0.45635566
000050 09 5e 19 3f 1b 6d a9 3e 5b 5a ad 3e 3f 83 c0 3e
       0.5990911 0.33091053 0.33857998 0.37600133

l2.weight f4 [24, 24]
000000 c0 02 97 3c 6e 4a 0e 3f f1 f9 de 3e 99 8f 26 bd
       0.018433928 0.5558232 0.43550065 -0.04066429
000010 53 f5 42 3f 4e a2 47 3f 43 39 2a 3f d8 a9 5c be
       0.76155585 0.7798203 0.66493624 -0.21549165
000020 f0 10 02 bf 72 df 1c be a3 5f 53 be 09 34 2b bf
       -0.50807095 -0.15319613 -0.20641951 -0.66876274
000030 cf 88 e2 be 31 73 42 3f c1 91 73 3d d7 7a 54 bc
       -0.44245002 0.7595702 0.059465174 -0.01296874
000040 7a 20 87 bc 39 50 07 3e 10 df 3f 3e 49 d5 8f be
       -0.016494978 0.13214196 0.18737435 -0.2809241
000050 b5 d7 9b be 5c 44 37 3f 1a 01 46 3e 68 dd 09 3f
       -0.3043801 0.71588683 0.19336358 0.53853464
000060 69 62 4d 3f a3 f8 44 3d 7f 86 eb bc 32 4b 0a 3e
       0.80228287 0.04808868 -0.028750656 0.13505247
000070 da 24 fc be 45 06 44 bf bf ed 35 be c4 4d fd bd
       -0.49246866 -0.76572067 -0.17766474 -0.12368348
000080 f2 fa b8 3e 52 2b 45 bd e9 98 0b 3e a8 9e 4f 3f
       0.36128956 -0.048137017 0.1363255 0.81101465
000090 64 d1 83 3e a9 f9 c2 3e 90 ea 35 3f 71 2e 09 3f
       0.2574569 0.380811 0.7106104 0.5358649
0000a0 c1 ee 1d 3f e0 af b9 be 06 27 af 3d 16 c4 a7 3e
       0.61692435 -0.36266994 0.08552365 0.3276679
0000b0 de 2a 82 3d b1 2b 8d 3e 0e 89 28 3e a6 ff 80 3d
       0.063558325 0.27572396 0.16458532 0.06298761
0000c0 af 7a 2c 3f d9 a9 73 be 7f 70 b7 3e d3 63 14 be
       0.673747 -0.2379526 0.35828015 -0.14491205
0000d0 e2 e0 07 3f 61 ae c6 3e 34 91 29 be 2c 4b e7 3e
       0.5307752 0.38804916 -0.16559297 0.4517454
0000e0 96 a7 3e 3f c7 5b 33 3f 2d 73 ed 3e 66 f2 e9 be
       0.74474466 0.70061916 0.46376935 -0.45692748
0000f0 2d db 2d 3f 83 15 2b bf 12 ae 27 3e de c4 5d 3e
       0.6791256 -0.668297 0.16374996 0.2165713
000100 75 22 2b bf d3 32 1c bf 37 74 9e 3e 0e 4c d4 3e
       -0.6684945 -0.6101505 0.3094804 0.41464275
000110 bd b8 b5 be 8d 59 38 bf 9c 47 58 3f 96 5a 24 3f
       -0.35492507 -0.72011644 0.8448427 0.64200723
000120 b8 47 3e bf 3a c5 4c 3f d1 a1 68 3f 40 ea 1d bf
       -0.74328184 0.79988444 0.9087191 -0.6168556
000130 36 52 1b bc a7 bd 32 3f 83 31 30 3f f8 a0 98 be
       -0.00948005 0.69820637 0.6882555 -0.2981031
000140 11 39 aa 3d 79 17 03 bf 8a ed 98 be 27 94 47 bf
       0.08311666 -0.5120769 -0.29868728 -0.7796044
000150 5e 68 d6 3e 3b b4 19 3f 51 95 50 3f a0 79 94 be
       0.418765 0.60040635 0.8147784 -0.28999043
000160 7d 01 9f 3d 1f 1e 78 3f 0f 93 ee 3e 70 66 9d be
       0.07763956 0.9692096 0.46596572 -0.30742216
000170 78 c9 78 3e f9 48 63 3f fb 5d 4a be c9 cd df 3e
       0.24295604 0.8878322 -0.19762413 0.4371169
000180 00 a3 0e bf 1d 44 a4 3e e9 f6 4b 3f 47 d2 a9 be
       -0.5571747 0.32083216 0.7967363 -0.3316824
000190 fe df 9a be b0 e1 04 3f 67 de 0a 3f 86 1d 95 3e
       -0.30249017 0.5190687 0.5424561 0.29124087
0001a0 63 0a 62 3f cb a9 4e 3f d3 78 1e 3f 2b 2e 07 3e
       0.882971 0.80727834 0.61903113 0.13201205
0001b0 f6 65 79 3f a0 9d 88 bd b5 fe 74 3f 9e e4 0a bf
       0.97421205 -0.066706896 0.9570115 -0.5425509
0001c0 31 9d 0d bf 39 6d 43 3f c1 ca c2 3e fd 32 5b 3f
       -0.5531798 0.76338536 0.38045314 0.85624677
0001d0 33 9e ea 3d 33 7a 3c 3e 42 4d 8d be 2c e4 89 be
       0.11455955 0.1840599 -0.27598006 -0.26931894
0001e0 67 f8 29 3f af eb b1 bd 51 62 a7 3d 44 04 35 3f
       0.66394657 -0.08687531 0.08173049 0.70709634
0001f0 91 fa e7 3e f1 0a 8f bd f8 cc a2 be 64 ef 93 3e
       0.45308354 -0.06984509 -0.31797004 0.28893578
000200 a4 4b 43 bd 92 37 79 bd f8 b6 92 bc e7 5b 18 3f
       -0.04767956 -0.06084401 -0.017909512 0.5951523
000210 42 c0 f6 bd 98 71 3b 3f d0 d4 c8 3d d9 79 3c 3f
       -0.12048389 0.73220205 0.09806216 0.73623425
000220 88 d9 12 3f b0 4b 01 bf c4 b3 01 bf 01 63 33 bf
       0.57363176 -0.50506115 -0.50664926 -0.7007294
000230 1b 35 00 3f be a9 11 3f 49 9a f5 be a6 c7 98 3e
       0.5008103 0.5689963 -0.47969273 0.2983982
000240 ce ba fd 3e 1c 3c 29 3f e6 32 84 bf 24 b0 22 3f
       0.49556583 0.66107345 -1.0328033 0.6355002
000250 c0 95 76 3e e2 c8 13 3f 05 00 23 3e 88 76 ac be
       0.24080563 0.577284 0.15917976 -0.33684182
000260 52 6e 49 bd 04 2a 36 bd 97 5e ec 3d 6a cf 79 3f
       -0.049177475 -0.044473663 0.11541479 0.97582114
000270 3f 40 b3 3e db 32 27 3f 01 5a db bd f4 86 7d be
       0.35009953 0.65311974 -0.10710526 -0.24758512
000280 1d 67 08 3f fc d3 03 bf 83 ad f2 be 2c ff 1f 3f
       0.5328234 -0.5149534 -0.47398004 0.62498736
000290 75 d8 09 3f bf bd 43 be 44 11 81 3f ae f3 2d 3f
       0.5384591 -0.19115351 1.0083394 0.6794995
0002a0 9d 23 78 3e f5 6f d0 bd 19 4c 28 3f b0 16 be 3e
       0.24232335 -0.10177604 0.65741116 0.37126684
0002b0 1e 35 74 3f 65 f9 6b bd 0e d4 d3 3d 15 1d 1c 3f
       0.9539355 -0.057610888 0.103431806 0.60981876
0002c0 51 5e 17 3f 4f 2d 41 3f 40 4e 1f 3f 88 c2 56 bf
       0.5912829 0.7545976 0.62228775 -0.8389058
0002d0 79 9a fa 3e 1a 17 fc be e0 58 03 be 1f c7 94 bd
       0.48945978 -0.49236375 -0.12826872 -0.07264542
0002e0 22 3d 1d bf 2d bf 9c be 18 61 24 3e 27 00 0f 3f
       -0.61421406 -0.30614606 0.16052663 0.5585961
0002f0 32 b0 a5 be a2 78 48 bf 6e 8e d7 3e 04 7d 77 3e
       -0.3236099 -0.7830907 0.42100853 0.24168783
000300 87 b2 57 3f 9d c8 9f 3e a2 74 1b bf 2b 1b 17 3f
       0.84256786 0.31207743 -0.6072484 0.5902583
000310 41 24 2f 3f f8 c2 10 bf f5 43 02 be 4b 7a c0 3e
       0.68414694 -0.565475 -0.12721236 0.37593302
000320 ec 78 f1 be ad a6 77 3e 6f fb de be 11 f0 cc bc
       -0.4716257 0.24184676 -0.43551204 -0.025016816
000330 68 9d 14 bf 4f 60 11 be f4 97 33 be c8 04 46 3f
       -0.5805268 -0.14196895 -0.17538434 0.77351046
000340 bf 20 d3 3e ab 5f 00 be 79 eb 1b 3f d1 46 01 3f
       0.4123592 -0.12536494 0.6090618 0.5049868
000350 5f ec 05 3f 4b a2 1c be 2f be 5f 3f 21 a3 44 3f
       0.523138 -0.15296285 0.8739957 0.76811415
000360 f5 dc a4 bd 7a 7c 3e 3d d8 ac 6f 3d 76 1d 1f be
       -0.08049957 0.04650543 0.058514446 -0.15538582
000370 16 d9 bd bc 33 5e bc bc bb d8 1a be 78 62 bc 3c
       -0.023174804 -0.022994136 -0.15121739 0.022996172
000380 ca 71 41 be 9c 8e 0c be 5f ab 13 be 2d f9 40 be
       -0.18891063 -0.13726276 -0.14420842 -0.18845053
000390 f0 75 36 3d 91 96 10 3e d2 41 3a bd 48 40 81 bc
       0.044546068 0.14119937 -0.045472927 -0.015777722
0003a0 cf 2d 44 be 7e 43 30 be 76 10 ee bd 7e 08 86 3d
       -0.191581 -0.17213246 -0.116242334 0.065445885
0003b0 72 fa 20 3e fc aa 04 be 86 aa 92 bd b1 cf b4 bd
       0.15720537 -0.1295585 -0.07161431 -0.088286765
0003c0 23 df 84 3d e1 51 34 bd f0 9f 25 3f f3 05 46 3e
       0.064878725 -0.0440234 0.6469717 0.19338207
0003d0 59 d9 0a 3f 4c c8 cf 3e fe 2d d4 3e c5 96 45 bc
       0.54237896 0.40582502 0.4144134 -0.012059872
0003e0 bd c0 07 3f 6d 4c 81 3e 61 c9 8c 3e 61 cf c7 3e
       0.5302847 0.2525362 0.2749739 0.39025405
0003f0 3e 90 3b 3f fe 21 0c 3f 98 d9 5f 3e cf 5f 58 bc
       0.7326697 0.5473937 0.21860349 -0.013206436

l2.bias f4 [24]
000000 60 ec 66 3e 02 ab bb 3e 10 a0 0f 3e ed ae f0 3d
       0.22551107 0.36653906 0.14025903 0.117521144
000010 ee 19 46 3e 21 3b 36 3e 2e 37 5f 3e a9 21 88 3e
       0.19345829 0.17795993 0.21798393 0.2658818
000020 d9 ea 2c 3e 3a a4 02 be b8 e1 a6 3d 58 df 93 bd
       0.16886462 -0.1275796 0.08148521 -0.07220334
000030 fc 62 c9 3b e4 37 31 be c3 e2 f5 3d 79 45 1f 3e
       0.006145833 -0.17306477 0.12006142 0.15553845
000040 76 40 11 3e cd c7 08 3e 42 81 83 3e d1 0a 63 3e
       0.14184746 0.13357468 0.25684553 0.22172095
000050 46 1c b8 3e 80 38 93 3e 2d e9 1a 3c d0 9f 14 3d
       0.3595907 0.28754044 0.0094550075 0.03628522

l3.weight f4 [20, 24]
000000 5a 27 a2 be be 17 77 3e be ef 1e bf c6 5b 11 bf
       -0.31670648 0.2413015 -0.6208457 -0.5678066
000010 e9 e7 6b be a5 fb c5 3e 56 4b 9e 3e 39 06 31 bf
       -0.23037685 0.38668552 0.30916852 -0.6915012
000020 a4 b4 bf be be a7 f0 bd e8 b4 36 3e 41 5d c2 be
       -0.37442505 -0.11750744 0.17842448 -0.37961772
000030 56 27 c0 3d 17 e7 f0 be 04 7d ed be 1d 7c 9b be
       0.09382503 -0.47051308 -0.46384442 -0.30368128
000040 ad 4d 79 3e 35 67 86 3e 9b 8a 02 3f e9 f5 22 bf
       0.24346037 0.26250616 0.50992745 -0.6365648
000050 e6 94 d2 be 47 04 7f 3e b6 6b 48 bf c6 1f cf 3e
       -0.41129225 0.24903975 -0.78289354 0.4045393
000060 6f 6d 23 bf 62 26 6e be 71 ef be be 6f 0d 26 bf
       -0.6383886 -0.2325683 -0.37292054 -0.6486425
000070 31 e2 ee 3d f2 00 ec be 9d 26 b5 3c 91 6a 89 3d
       0.11664236 -0.4609447 0.022113139 0.06709779
000080 49 cb 3a 3e a9 91 9b bd 9e 3b 21 bf 81 ea 86 be
       0.1824161 -0.07596142 -0.62981594 -0.26350787
000090 06 b1 bf be be 22 1e bf 79 cf 81 be 69 ea 76 3e
       -0.37439746 -0.6177176 -0.25353602 0.24112858
0000a0 2b d7 ca 3e 28 91 b6 3e b5 43 83 3e b3 16 21 bf
       0.39617285 0.3565762 0.25637594 -0.6292526
0000b0 65 5b 02 bf 2b 3b 72 3e b5 7e bd 3d 78 c2 9d bd
       -0.50920707 0.23655383 0.09252683 -0.077031076
0000c0 51 f2 92 3d 6a 74 ce be 46 15 10 be 0a 3b d4 3d
       0.071751244 -0.40323192 -0.14070615 0.10362823
0000d0 e2 43 b6 be 92 74 2c be b8 e8 b4 3e a6 b0 1f be
       -0.35598665 -0.16841343 0.353338 -0.1559473
0000e0 d5 16 5e bc c5 0e ea 3c 02 af aa 3d 00 f7 bd be
       -0.013555248 0.028571496 0.08334161 -0.3710251
0000f0 ea 9f db 3e 94 ca 29 c0 96 10 b2 bf 8d d3 43 bf
       0.42895442 -2.6529894 -1.3911312 -0.76494676
000100 80 37 cd 3e c2 ee 49 3e a3 e7 ce bf 92 36 2a bf
       0.40081406 0.19719985 -1.616444 -0.6648952
000110 45 ad 49 3e 1a e5 8c bd 86 65 e8 be 0e f9 2a be
       0.19695003 -0.06879635 -0.45389956 -0.1669657
000120 9b 45 bd 3c ce 5a 89 bd 3d b5 1d bc 6d 70 94 bf
       0.02310448 -0.06706773 -0.00962573 -1.159681
000130 af 24 2d bf 10 ba 89 3e b1 5e 30 be 0f 39 a6 3e
       -0.676341 0.26899767 -0.17223622 0.32465407
000140 f9 f3 b9 3e f6 dd b0 3c 02 e2 07 bf f9 fa ff 3d
       0.3631895 0.021590214 -0.53079236 0.12499041
000150 49 5e c5 be ac 17 88 3f 26 dd 3a bf 19 ef 81 be
       -0.38548496 1.0632224 -0.72993696 -0.2537773
000160 37 bb ae bf 54 56 a6 bf ed 18 9d 3e 75 2e c4 3e
       -1.3650883 -1.2995095 0.3068308 0.38316694
000170 43 ab 0b be 93 a7 8e bd 44 ea cf 3e 94 2e 13 bf
       -0.1363955 -0.06965556 0.40608418 -0.5749295
000180 54 c2 d8 3d 1c 0b ef be c6 0b 86 bf 30 ba 97 3e
       0.1058394 -0.46688163 -1.0472343 0.29634237
000190 a4 d0 18 be 9d 1c ed bc 5d 6b aa bf 75 fe 41 bf
       -0.1492334 -0.028944308 -1.3314015 -0.75778896
0001a0 8a 34 99 be 24 55 14 3e 7b a0 14 bf 83 1d be 3e
       -0.29922897 0.14485604 -0.58057374 0.3713189
0001b0 45 e8 67 bf 06 43 10 3f 0c 46 c1 3e b2 28 58 3e
       -0.9058879 0.5635227 0.37748754 0.21109274
0001c0 85 41 37 3e aa 0d dc 3c 34 cd 53 3e 05 fb 3f bf
       0.17896087 0.026861984 0.20683748 -0.749924
0001d0 b6 4f 7d bd a3 87 5a 3e 4a 1c 93 be 74 98 94 be
       -0.061843596 0.21340804 -0.2873252 -0.29022563
0001e0 49 87 9f bf 59 4f 9f 3e ee e8 84 3d 92 b1 c0 be
       -1.2463161 0.31115225 0.0648974 -0.37635475
0001f0 71 df ba 3e df 99 78 bf bd 31 ba bf 0b f8 9f 3e
       0.36498597 -0.9710979 -1.4546429 0.3124393
000200 cd 79 42 bf fc 8d 2f be 4e fc ee bd 5a 7f 0a 3e
       -0.75967103 -0.17144006 -0.11669217 0.13525143
000210 80 56 91 bf 62 42 9b 3f 6f 5f 62 3d 82 18 3f bf
       -1.1354523 1.2129633 0.055266794 -0.7464677
000220 c1 10 52 bf 5e 71 15 bc 7b 64 9b 3e db 54 6f bf
       -0.82056814 -0.009121267 0.30350098 -0.93488854
000230 33 94 98 bf 9b 3a da bd 68 3a ce 3e 7c b3 cc 3e
       -1.1920227 -0.10655709 0.40278935 0.39980686
000240 cb 6c 2d be 70 f3 14 3e 6a 1d c5 be 04 36 db 3e
       -0.16936032 0.14545989 -0.38499004 0.42814648
000250 79 a4 88 3e bd 34 be 3d 88 98 77 bb 94 a4 2e bf
       0.26687983 0.09287403 -0.0037780125 -0.68219876
000260 a3 f5 83 bf 69 60 03 be 25 27 61 3e 2e 26 70 3e
       -1.0309337 -0.12829746 0.21987589 0.23452064
000270 39 36 02 3f 0e ce c2 bf 2b 27 2c bf 1b f8 00 be
       0.5086399 -1.5219133 -0.67247266 -0.12594645
000280 2e ba 91 bf 92 98 c0 be 88 02 2c bf 25 bf 42 3e
       -1.1384943 -0.37616402 -0.6719136 0.19018228
000290 b7 9b a4 bf 32 94 6b bf 5a a6 5e bf 93 b0 9d 3e
       -1.286002 -0.92023003 -0.8697258 0.30798778
0002a0 a8 fc d7 3e 8d a9 8e be d9 cb 79 be cc 76 9b 3e
       0.4218495 -0.27863732 -0.24394168 0.30364072
0002b0 06 4e 44 bd 62 59 82 be b4 0f 8b 3e f8 67 ab bd
       -0.04792597 -0.2545882 0.27160418 -0.0836944
0002c0 05 15 f2 bd 5f f8 32 bd 75 36 82 be dd e8 da bf
       -0.118204154 -0.043693896 -0.25432172 -1.7102314
0002d0 48 94 f2 be d5 9b a4 be 49 d9 0f bf d5 2d 82 3c
       -0.47378755 -0.3215014 -0.56190926 0.015890995
0002e0 67 5d 99 be b3 23 2b bf 85 e6 67 bf 93 37 f7 3e
       -0.29954073 -0.6685135 -0.9058612 0.48284587
0002f0 bd 20 2a 3e 2d 07 a1 3e c1 9e 0e bf 50 5b 3e be
       0.16614051 0.31450787 -0.5571099 -0.1858952
000300 47 55 7f 3e 4d d4 8c 3e d2 56 53 bf 57 e1 ce 3e
       0.24934874 0.27505723 -0.8255435 0.40406296
000310 6b 8d ab 3d 28 ff c5 bf 78 12 9c bd f8 c0 36 bf
       0.08376583 -1.5468493 -0.0762071 -0.71388197
000320 46 50 c4 3d 66 62 6d 3c ba 90 47 bf cf 68 50 bf
       0.095856234 0.014488792 -0.7795521 -0.81409925
000330 81 61 77 bf e0 8d 69 3d 21 af b3 3e 98 bc 99 3e
       -0.96633154 0.05702007 0.3509455 0.30026698
000340 25 58 58 bf 4c 7e 79 be 39 c5 ca bf b9 80 bc 3e
       -0.845095 -0.24364585 -1.5841438 0.36816958
000350 fd f5 2e 3e a7 3f f9 bd fd e8 6c bf 88 b7 63 bf
       0.17086025 -0.12170344 -0.9254301 -0.8895192
000360 a5 98 1d 3e 02 90 1a bf 5f c9 7e be 64 ff a9 bd
       0.1539026 -0.6037599 -0.24881504 -0.08300665
000370 5e c2 b2 3c ed d4 94 bd 41 79 12 bf ff 6f a6 3e
       0.021821197 -0.07267175 -0.5721627 0.3250732
000380 96 f8 be bf 6d 1a c7 3d 04 56 f5 3e 83 7f a1 bf
       -1.4919612 0.09721837 0.47917187 -1.2617038
000390 8a b6 83 be 09 6d 28 c0 91 91 da bf fa 21 c9 bf
       -0.25725204 -2.631655 -1.7075673 -1.5713494
0003a0 dc dd dc 3e ae 94 08 3e 27 b4 0e 3f e5 a4 b8 bf
       0.43138015 0.13337967 0.5574364 -1.4425322
0003b0 f7 77 ab be 97 e6 78 3e 6a 09 8b 3e 0f a3 1d 3e
       -0.33489963 0.24306713 0.2715562 0.15394233
0003c0 a1 cf ba be 97 f9 65 be 94 66 c2 3e 98 3f 87 be
       -0.36486533 -0.22458492 0.37968886 -0.26415706
0003d0 17 aa 14 be 11 67 42 be 38 cc 16 be 2d 31 6f 3d
       -0.14518009 -0.18984629 -0.14726341 0.058396507
0003e0 fb 3c af 3e 87 2f d4 bd 14 60 a8 bf e4 0d cf 3e
       0.34226212 -0.103606276 -1.3154321 0.40440285
0003f0 dc 84 f2 3b dc 64 39 3f 58 4b 48 3e cf 7f 9c bd
       0.007401092 0.72419524 0.19559991 -0.07641565

l3.bias f4 [20]
000000 ba 48 91 3e c9 42 e3 3d 06 13 c3 3d 2d 85 a4 bd
       0.28375798 0.11096723 0.09525113 -0.08033214
000010 d7 52 00 be 2c 35 1a 3e e8 0c 52 bc c5 9b 64 3e
       -0.12531601 0.15059346 -0.01282046 0.22325046
000020 a8 eb 11 3e fa 86 eb bd 87 6d 0c be 24 1b 1e be
       0.14250052 -0.11500354 -0.13713656 -0.15440041
000030 88 4c 0c 3e a2 dc 27 3c ec a0 e8 3d eb c1 d7 bd
       0.1370107 0.010245474 0.113588184 -0.10535034
000040 80 84 77 bd bf cd bd 3d 98 03 7f 3e 4d 93 9b be
       -0.060429096 0.092677586 0.24903715 -0.3038582
